layer     filters    size              input                output
    0 conv     32  3 x 3 / 1   224 x 224 x   3   ->   224 x 224 x  32  0.087 (0.087)BFLOPs
    1 max          2 x 2 / 2   224 x 224 x  32   ->   112 x 112 x  32
    2 conv     64  3 x 3 / 1   112 x 112 x  32   ->   112 x 112 x  64  0.462 (0.549)BFLOPs
    3 max          2 x 2 / 2   112 x 112 x  64   ->    56 x  56 x  64
    4 conv    128  3 x 3 / 1    56 x  56 x  64   ->    56 x  56 x 128  0.462 (1.012)BFLOPs
    5 conv     64  1 x 1 / 1    56 x  56 x 128   ->    56 x  56 x  64  0.051 (1.063)BFLOPs
    6 conv    128  3 x 3 / 1    56 x  56 x  64   ->    56 x  56 x 128  0.462 (1.525)BFLOPs
    7 max          2 x 2 / 2    56 x  56 x 128   ->    28 x  28 x 128
    8 conv    256  3 x 3 / 1    28 x  28 x 128   ->    28 x  28 x 256  0.462 (1.988)BFLOPs
    9 conv    128  1 x 1 / 1    28 x  28 x 256   ->    28 x  28 x 128  0.051 (2.039)BFLOPs
   10 conv    256  3 x 3 / 1    28 x  28 x 128   ->    28 x  28 x 256  0.462 (2.502)BFLOPs
   11 max          2 x 2 / 2    28 x  28 x 256   ->    14 x  14 x 256
   12 conv    512  3 x 3 / 1    14 x  14 x 256   ->    14 x  14 x 512  0.462 (2.964)BFLOPs
   13 conv    256  1 x 1 / 1    14 x  14 x 512   ->    14 x  14 x 256  0.051 (3.015)BFLOPs
   14 conv    512  3 x 3 / 1    14 x  14 x 256   ->    14 x  14 x 512  0.462 (3.478)BFLOPs
   15 conv    256  1 x 1 / 1    14 x  14 x 512   ->    14 x  14 x 256  0.051 (3.529)BFLOPs
   16 conv    512  3 x 3 / 1    14 x  14 x 256   ->    14 x  14 x 512  0.462 (3.992)BFLOPs
   17 max          2 x 2 / 2    14 x  14 x 512   ->     7 x   7 x 512
   18 conv   1024  3 x 3 / 1     7 x   7 x 512   ->     7 x   7 x1024  0.462 (4.454)BFLOPs
   19 conv    512  1 x 1 / 1     7 x   7 x1024   ->     7 x   7 x 512  0.051 (4.505)BFLOPs
   20 conv   1024  3 x 3 / 1     7 x   7 x 512   ->     7 x   7 x1024  0.462 (4.968)BFLOPs
   21 conv    512  1 x 1 / 1     7 x   7 x1024   ->     7 x   7 x 512  0.051 (5.019)BFLOPs
   22 conv   1024  3 x 3 / 1     7 x   7 x 512   ->     7 x   7 x1024  0.462 (5.482)BFLOPs
   23 conv   1000  1 x 1 / 1     7 x   7 x1024   ->     7 x   7 x1000  0.100 (5.582)BFLOPs
   24 avg                        7 x   7 x1000   ->  1000
   25 softmax                                        1000
   26 cost                                           1000
